…
Loading data... - INFO -   train X shape: (1070, 71, 50)
Loading data... - INFO -   dev X shape:   (356, 71, 50)
Loading data... - INFO -   test X shape:  (357, 71, 50)
Loading data... - INFO -   train Y shape: (1070, 1)
Loading data... - INFO -   dev Y shape:   (356, 1)
Loading data... - INFO -   test Y shape:  (357, 1)
Loading data... - INFO -   train_y mean: [8.553271], stdev: [1.5372216], train_y mean after scaling: [0.65532714]
Loading data... - INFO - Loading GloVe ...
Loading data... - INFO - OOV number =732, OOV ratio = 0.133115
HierAttNet(
  (word_att_net): WordAttNet(
    (lookup): Embedding(5500, 50)
    (conv1): Conv1d(50, 100, kernel_size=(5,), stride=(1,))
    (dropout): Dropout(p=0.5, inplace=False)
    (fc1): Linear(in_features=100, out_features=100, bias=True)
    (fc2): Linear(in_features=100, out_features=1, bias=False)
  )
  (sent_att_net): SentAttNet(
    (LSTM): LSTM(100, 100)
    (fc): Linear(in_features=100, out_features=1, bias=True)
    (fc1): Linear(in_features=100, out_features=100, bias=True)
    (fc2): Linear(in_features=100, out_features=1, bias=False)
  )
)
begin train
loss: tensor(0.0078, device='cuda:0', grad_fn=<MseLossBackward0>)
dev  Epoch: 1/50, Iteration: 107/107, loss : 22815.140625, quadratic_weighted_kappa: 0.7077451800671146, pearson: [0.76415294], spearman: 0.9944283347141674
test  Epoch: 1/50, Iteration: 107/107, loss: 22699.1640625, quadratic_weighted_kappa: 0.6732637388674406, pearson: 0.9983863578699951, spearman: [0.73971546]
…
Loading data... - INFO -   train X shape: (1069, 71, 50)
Loading data... - INFO -   dev X shape:   (357, 71, 50)
Loading data... - INFO -   test X shape:  (357, 71, 50)
Loading data... - INFO -   train Y shape: (1069, 1)
Loading data... - INFO -   dev Y shape:   (357, 1)
Loading data... - INFO -   test Y shape:  (357, 1)
Loading data... - INFO -   train_y mean: [8.545369], stdev: [1.5526464], train_y mean after scaling: [0.65453696]
Loading data... - INFO - Loading GloVe ...
Loading data... - INFO - OOV number =704, OOV ratio = 0.129770
HierAttNet(
  (word_att_net): WordAttNet(
    (lookup): Embedding(5426, 50)
    (conv1): Conv1d(50, 100, kernel_size=(5,), stride=(1,))
    (dropout): Dropout(p=0.5, inplace=False)
    (fc1): Linear(in_features=100, out_features=100, bias=True)
    (fc2): Linear(in_features=100, out_features=1, bias=False)
  )
  (sent_att_net): SentAttNet(
    (LSTM): LSTM(100, 100)
    (fc): Linear(in_features=100, out_features=1, bias=True)
    (fc1): Linear(in_features=100, out_features=100, bias=True)
    (fc2): Linear(in_features=100, out_features=1, bias=False)
  )
)
begin train
loss: tensor(0.0052, device='cuda:0', grad_fn=<MseLossBackward0>)
dev  Epoch: 1/50, Iteration: 107/107, loss : 22691.724609375, quadratic_weighted_kappa: 0.6598613942111702, pearson: [0.724248], spearman: 0.9958100228981179
test  Epoch: 1/50, Iteration: 107/107, loss: 22938.134765625, quadratic_weighted_kappa: 0.6252888837531778, pearson: 0.9861226644948357, spearman: [0.67400074]
…
Loading data... - INFO -   train X shape: (1069, 71, 50)
Loading data... - INFO -   dev X shape:   (357, 71, 50)
Loading data... - INFO -   test X shape:  (357, 71, 50)
Loading data... - INFO -   train Y shape: (1069, 1)
Loading data... - INFO -   dev Y shape:   (357, 1)
Loading data... - INFO -   test Y shape:  (357, 1)
Loading data... - INFO -   train_y mean: [8.520112], stdev: [1.5398717], train_y mean after scaling: [0.6520112]
Loading data... - INFO - Loading GloVe ...
Loading data... - INFO - OOV number =703, OOV ratio = 0.129825
HierAttNet(
  (word_att_net): WordAttNet(
    (lookup): Embedding(5416, 50)
    (conv1): Conv1d(50, 100, kernel_size=(5,), stride=(1,))
    (dropout): Dropout(p=0.5, inplace=False)
    (fc1): Linear(in_features=100, out_features=100, bias=True)
    (fc2): Linear(in_features=100, out_features=1, bias=False)
  )
  (sent_att_net): SentAttNet(
    (LSTM): LSTM(100, 100)
    (fc): Linear(in_features=100, out_features=1, bias=True)
    (fc1): Linear(in_features=100, out_features=100, bias=True)
    (fc2): Linear(in_features=100, out_features=1, bias=False)
  )
)
begin train
loss: tensor(0.0100, device='cuda:0', grad_fn=<MseLossBackward0>)
dev  Epoch: 1/50, Iteration: 107/107, loss : 23114.224609375, quadratic_weighted_kappa: 0.5971272346333032, pearson: [0.6524284], spearman: 0.9946430945110453
test  Epoch: 1/50, Iteration: 107/107, loss: 23294.240234375, quadratic_weighted_kappa: 0.6960982434323022, pearson: 0.992884031398009, spearman: [0.75894094]
…
Loading data... - INFO -   train X shape: (1070, 71, 50)
Loading data... - INFO -   dev X shape:   (357, 71, 50)
Loading data... - INFO -   test X shape:  (356, 71, 50)
Loading data... - INFO -   train Y shape: (1070, 1)
Loading data... - INFO -   dev Y shape:   (357, 1)
Loading data... - INFO -   test Y shape:  (356, 1)
Loading data... - INFO -   train_y mean: [8.504673], stdev: [1.5234848], train_y mean after scaling: [0.6504673]
Loading data... - INFO - Loading GloVe ...
Loading data... - INFO - OOV number =685, OOV ratio = 0.127182
HierAttNet(
  (word_att_net): WordAttNet(
    (lookup): Embedding(5387, 50)
    (conv1): Conv1d(50, 100, kernel_size=(5,), stride=(1,))
    (dropout): Dropout(p=0.5, inplace=False)
    (fc1): Linear(in_features=100, out_features=100, bias=True)
    (fc2): Linear(in_features=100, out_features=1, bias=False)
  )
  (sent_att_net): SentAttNet(
    (LSTM): LSTM(100, 100)
    (fc): Linear(in_features=100, out_features=1, bias=True)
    (fc1): Linear(in_features=100, out_features=100, bias=True)
    (fc2): Linear(in_features=100, out_features=1, bias=False)
  )
)
begin train
loss: tensor(0.0074, device='cuda:0', grad_fn=<MseLossBackward0>)
dev  Epoch: 1/50, Iteration: 107/107, loss : 23002.646484375, quadratic_weighted_kappa: 0.6808672018203654, pearson: [0.75975037], spearman: 0.9943304937944043
test  Epoch: 1/50, Iteration: 107/107, loss: 23061.57421875, quadratic_weighted_kappa: 0.6641152851241265, pearson: 0.9987151926762159, spearman: [0.7483123]
…
Loading data... - INFO -   train X shape: (1071, 71, 50)
Loading data... - INFO -   dev X shape:   (356, 71, 50)
Loading data... - INFO -   test X shape:  (356, 71, 50)
Loading data... - INFO -   train Y shape: (1071, 1)
Loading data... - INFO -   dev Y shape:   (356, 1)
Loading data... - INFO -   test Y shape:  (356, 1)
Loading data... - INFO -   train_y mean: [8.518208], stdev: [1.5367867], train_y mean after scaling: [0.6518207]
Loading data... - INFO - Loading GloVe ...
Loading data... - INFO - OOV number =697, OOV ratio = 0.128196
HierAttNet(
  (word_att_net): WordAttNet(
    (lookup): Embedding(5438, 50)
    (conv1): Conv1d(50, 100, kernel_size=(5,), stride=(1,))
    (dropout): Dropout(p=0.5, inplace=False)
    (fc1): Linear(in_features=100, out_features=100, bias=True)
    (fc2): Linear(in_features=100, out_features=1, bias=False)
  )
  (sent_att_net): SentAttNet(
    (LSTM): LSTM(100, 100)
    (fc): Linear(in_features=100, out_features=1, bias=True)
    (fc1): Linear(in_features=100, out_features=100, bias=True)
    (fc2): Linear(in_features=100, out_features=1, bias=False)
  )
)
begin train
loss: tensor(0.0045, device='cuda:0', grad_fn=<MseLossBackward0>)
dev  Epoch: 1/50, Iteration: 108/108, loss : 22558.05078125, quadratic_weighted_kappa: 0.4601350724816864, pearson: [0.7148404], spearman: 0.9970725875411092
test  Epoch: 1/50, Iteration: 108/108, loss: 22187.029296875, quadratic_weighted_kappa: 0.4722297191991457, pearson: 0.9934714366835514, spearman: [0.72486293]
…
